model/model_net.pkl (torch, 874407 bytes, 6 tensors)

linear1.weight f4 [256, 784]
000000 70 20 3e bb e8 dd f7 3b 70 0b 3d bb 3e 57 8b 3c
       -0.0029011033 0.007564295 -0.0028845929 0.017009374
000010 a0 79 8e 3a 43 b2 07 3d 38 47 a4 bb 12 e5 02 bc
       0.0010869987 0.033128988 -0.0050133727 -0.007989185
000020 9c 5a 3b 3c 7a f8 a8 3c 66 d2 39 bc 50 b8 32 bb
       0.011435177 0.020626295 -0.011341667 -0.0027270503
000030 d0 6f 30 bb 95 55 d7 bc 90 e3 7f bb a0 c9 c4 bc
       -0.0026922114 -0.026285926 -0.003904555 -0.024021924
000040 ae c1 52 bc e6 9f de 3c 38 66 a2 3b e8 5f 59 3c
       -0.01286356 0.027175855 0.004956033 0.013267495
000050 3a ad ed bc 5c d2 9f bc 80 2c 26 bb 22 dc a5 3c
       -0.029013265 -0.019509487 -0.0025356114 0.020246569
000060 e0 76 98 ba a2 c3 d7 3c c1 5d e7 bc 4f 94 07 3d
       -0.0011632107 0.026338402 -0.028242948 0.033100422
000070 04 7e 58 3c 97 19 05 3d c0 a5 41 ba 68 2e e5 bc
       0.013213638 0.032495108 -0.00073870644 -0.02797623
000080 20 9e c9 bc 32 22 25 bc da e8 f5 3c 00 b4 e2 bb
       -0.024611533 -0.010078954 0.030018259 -0.0069184303
000090 36 cf e2 3c d4 c1 06 3c d9 49 97 bc f5 d0 0f 3d
       0.027686696 0.008224923 -0.01846783 0.035111386
0000a0 19 f9 c5 bc b3 b5 11 bc 92 5b 3a bc 84 f2 b4 3c
       -0.02416663 -0.008893418 -0.011374371 0.022088297
0000b0 e5 00 50 bc 3a 83 ba 3c 29 f8 44 bb bc 75 a1 bc
       -0.012695526 0.022767652 -0.0030055142 -0.01970946
0000c0 79 d2 70 bc c5 b0 65 ba 48 9d cf 3c dc 56 a7 bb
       -0.014698618 -0.00087619975 0.025343552 -0.00510679
0000d0 c8 2d a2 3b 9e 45 81 3c 40 5c cb bc ee dc 81 3c
       0.004949305 0.015780266 -0.024824262 0.015852418
0000e0 b9 d1 00 3d 16 95 df 3c e3 2a 8f bc 62 87 07 3d
       0.031450007 0.02729277 -0.017476505 0.033088095
0000f0 92 d8 64 bc d7 43 a3 3c 87 1e 80 bc 99 fd af bc
       -0.01396765 0.01992981 -0.015639557 -0.02148323
000100 cc 5a 92 3c 3f e3 8c 3c d7 4e e7 3c 20 df eb 3c
       0.017865561 0.017198203 0.028235836 0.028792918
000110 96 22 16 bd 4e 11 33 bb 85 cc 10 3c 0e 9b 52 bb
       -0.036654077 -0.0027323547 0.008837824 -0.0032135877
000120 c3 dd 39 bc a7 40 79 3a 15 fa ca 3c ce 90 04 bc
       -0.011344376 0.000950823 0.024777452 -0.008091165
000130 f2 1f 35 3c f2 b2 e7 bc ea dd 67 bc c1 58 be bb
       0.01105498 -0.02828357 -0.0141520295 -0.00580892
000140 60 f4 29 bc bb 35 b0 bc f8 de dc bb b6 74 e4 3c
       -0.010373205 -0.021509996 -0.006740447 0.027887683
000150 03 8c 00 3d 50 20 fa 3b 66 fd 77 bc ac e2 65 bc
       0.031383526 0.0076332465 -0.0151360985 -0.014031094
000160 f7 a6 56 bc bb 50 65 ba 43 50 73 bc 74 01 18 ba
       -0.013101331 -0.00087476865 -0.014850679 -0.00057985564
000170 5a 7f b1 bc 2d 57 2e bc b0 ad 1e 3c 2c b5 ee bc
       -0.021667171 -0.0106409015 0.009684965 -0.029139124
000180 ab 72 9c bd 0d 9f 28 bd a0 45 cc bd dd 5e 18 be
       -0.07639059 -0.041167308 -0.099742174 -0.14879937
000190 5e 11 52 be cc 92 c8 bd a8 11 9c bc 0f da eb 3b
       -0.20514438 -0.09793624 -0.019051388 0.0071976255
0001a0 d4 57 c2 bb 6c da cf 3c 21 09 ab bc 56 ff 5b bd
       -0.00593088 0.025372706 -0.020878376 -0.053710304
0001b0 74 7a 82 bd ad 7e 32 bc f6 1d fd 3c 28 f8 a6 bc
       -0.06371012 -0.01089446 0.030898076 -0.020382002
0001c0 da 5d de bc 6f 19 bf 3b 23 17 c6 3c 14 06 a7 3c
       -0.027144361 0.0058318893 0.024180954 0.02038864
0001d0 82 40 84 ba 2b 64 77 bd 13 04 9c bd 07 c3 ec bd
       -0.0010090026 -0.060398262 -0.076179646 -0.11560636
0001e0 e4 bf fe bd 61 5f bf bd 9f ed 9a bd b3 a6 04 be
       -0.12438944 -0.09344364 -0.07564854 -0.12954216
0001f0 17 69 0c be dc ad 51 be f8 31 53 be fc 0b 52 be
       -0.13711964 -0.20476478 -0.2062453 -0.20512384
000200 bd bc 39 be 4a fd 1f be e1 90 0a be a2 18 57 be
       -0.18138404 -0.15623966 -0.1353183 -0.2100549
000210 eb 2c bb bd 76 b7 91 3c 19 38 32 bd 00 51 5f ba
       -0.09139427 0.017787676 -0.04351053 -0.0008518845
000220 c0 8a 04 3d 05 01 bf 3d a8 bf f4 3c 32 2f b4 bc
       0.032358885 0.09326366 0.029876545 -0.02199516
000230 ca bd 84 bc c8 0b a2 3b e0 a1 20 3c 06 c7 d6 3c
       -0.01620378 0.004945252 0.009804219 0.026217949
000240 72 66 b5 3c 48 ba 4d bd 41 78 19 be 92 d1 81 be
       0.022143576 -0.05022648 -0.1498728 -0.25355202
000250 ff 0c 6b be 8d dc 0f be 27 fe 08 be 94 7e db 3c
       -0.22954176 -0.14048977 -0.13378201 0.026793756
000260 4c 25 fa bd b3 99 4d bd 01 86 ff 3b 93 e2 ae bd
       -0.12214145 -0.050195407 0.007797957 -0.08539309
000270 cd da 11 be 3e db 8d be 22 bb f2 be e9 95 94 be
       -0.14243622 -0.2770633 -0.47408396 -0.29020622
000280 b8 ab 0a bd 7f b7 ae bb 72 2d 28 3e f6 d5 97 3d
       -0.03385517 -0.005331933 0.16423586 0.07413857
000290 f8 91 e8 3d 23 29 0d 3e 01 e2 2d 3d 98 b8 02 bd
       0.11355966 0.13785224 0.042451862 -0.031914324
0002a0 f8 cb bc 3b 1d 8b f5 3c 30 fe 85 bc 8a cb 9a 3c
       0.0057616197 0.029973561 -0.016356558 0.018895883
0002b0 83 a1 8a bc 85 ef b2 bd 3c c4 48 be 68 9c aa be
       -0.016922718 -0.08737091 -0.19606107 -0.33322453
0002c0 b7 51 6d be ba c3 76 bd d5 49 c5 3c 14 9b c5 3c
       -0.23175703 -0.060245253 0.024083057 0.024121799
0002d0 03 36 48 3d b7 02 67 3d 28 a3 c0 bb 0d f2 9f be
       0.048879635 0.056399073 -0.0058788247 -0.31239358
0002e0 2a dd a4 be 08 cb a8 be 6b b8 7d be eb c6 01 3c
       -0.32199985 -0.329674 -0.24777381 0.007920961
0002f0 a1 e4 25 3e 29 94 58 3e e6 f8 96 3e ac 26 58 3e
       0.16200496 0.21150269 0.2948677 0.21108502
000300 37 6e a9 3e b2 e2 92 3e 67 5e 8b 3d ba 60 54 bc
       0.330919 0.2868858 0.06805115 -0.012962515
000310 fe b1 f2 3c 25 38 1b bc 7b 26 dc bc c8 b8 34 bd
       0.029625889 -0.009473835 -0.026873818 -0.044121534
000320 01 e9 66 bd 06 75 c6 bd 86 f4 87 be 24 2b 8c be
       -0.056374554 -0.09690289 -0.26553744 -0.27376664
000330 0d 85 2e bd 37 32 a5 3c 4b e3 b7 3d 28 a2 2a bd
       -0.042607356 0.020165546 0.089788996 -0.04165855
000340 84 b3 f8 bd da a1 59 3d 0d 3e b9 3d d8 3c 78 3e
       -0.12143615 0.05313287 0.09045038 0.2424196
000350 c7 56 48 3e 9f ca c0 3e eb 38 07 3f c4 0e cc 3e
       0.19564353 0.37654588 0.52821225 0.39855015
000360 d1 1c 0d 3f a1 67 0d 3f 7e 4c 09 3f 0f 9b f4 3e
       0.55122095 0.5523625 0.5363234 0.4777455
000370 a1 51 af 3e ad 96 70 3e 7b 22 eb 3d 5e ac 67 3c
       0.34241965 0.23494978 0.11481186 0.014140217
000380 90 69 26 3c 4c 57 de bc 83 6f b7 3c dd 0e e1 bc
       0.010157004 -0.027141236 0.02239204 -0.027472908
000390 27 0d 86 bd eb 85 0d be fa 95 07 be 8c 0c 38 be
       -0.06545477 -0.13820617 -0.13240805 -0.17973536
0003a0 96 3e 65 3b e1 89 1a 3d af 3a 96 bd 1c fe b1 3b
       0.003497993 0.037729148 -0.07335412 0.0054319035
0003b0 98 91 f1 3d 23 40 b5 3d 17 b3 25 3d 07 59 98 3e
       0.11795348 0.08850124 0.040453997 0.29755422
0003c0 10 97 e7 3e e7 e4 a9 3e 31 ae 2c 3f 19 98 36 3f
       0.4523244 0.3318245 0.67453295 0.7132583
0003d0 cb 8f ed 3e 79 18 cd 3e bd e4 e4 3e d9 9b 1b 3f
       0.46398768 0.40057734 0.44705763 0.6078468
0003e0 d9 c3 0e 3f 9b ba 88 3e 1e 4a d6 3c 0c 75 0f 3c
       0.5576759 0.2670487 0.026158389 0.0087559335
0003f0 ac b7 0b bd 9f 60 02 3d 7e 56 cd 3b 6c f8 5a bd
       -0.03411071 0.031830426 0.006266414 -0.05345957

linear1.bias f4 [256]
000000 c7 70 ab 3e bc 34 f4 bd bf ec 06 3e 99 48 b1 be
       0.3348448 -0.11924121 0.13176249 -0.346257
000010 89 a5 03 bf 8a d7 8e bd a3 15 66 3e 91 10 96 3d
       -0.5142446 -0.069747046 0.22469191 0.073273785
000020 76 6e 9d bb 9b 27 65 bd ce 24 e0 bc 79 7d 33 be
       -0.0048044277 -0.055945974 -0.0273613 -0.17528333
000030 d6 af 2e bd 77 7c 0f be 02 b5 1a be 47 ae d1 bd
       -0.04264816 -0.14012323 -0.15108112 -0.10238319
000040 42 3a a0 bc c5 72 dd 3b 97 0b f2 39 9a 4a 76 be
       -0.01955903 0.0067580664 0.00046166472 -0.24051896
000050 af c4 07 be 2f 5b 7d bd 26 8b 3a bc a5 61 80 be
       -0.13258623 -0.061854538 -0.011385715 -0.25074497
000060 01 2f 39 3e f4 4f 51 3c 46 6c 33 3b 65 29 9c be
       0.18084337 0.01277541 0.0027377768 -0.30500332
000070 a6 35 de bd 77 dd d3 bd 9a f0 ee 3b 5a bb d5 3c
       -0.108500764 -0.103449754 0.0072918655 0.026090313
000080 46 7d cf be 61 1a 01 bd a6 73 74 3c ac bf 82 bd
       -0.40525264 -0.031519298 0.014920151 -0.06384215
000090 37 c6 50 be 16 b2 11 bd 36 6e fb 3d 53 46 08 bf
       -0.20388113 -0.035570227 0.122768804 -0.53232306
0000a0 c3 1a dd 3b ce cb 48 be 27 08 e2 bc c1 4c ba 3d
       0.006747575 -0.19608995 -0.027591778 0.09096671
0000b0 7b 45 ab bc 33 33 f3 3d ed 7d 28 be ed 03 3d be
       -0.020907154 0.11875 -0.16454287 -0.18458529
0000c0 c9 0d 17 bf 21 b9 80 3e dd 15 62 be fe e4 b1 bc
       -0.5900541 0.25141242 -0.22078653 -0.021715637
0000d0 67 dd 7f 3d 25 fc eb 3c 39 b9 98 be 8d d1 c5 bc
       0.062467005 0.028806755 -0.29828814 -0.024147773
0000e0 e7 87 d4 3d d5 8c 2b be 4b 61 61 bd e8 8a c5 be
       0.10377484 -0.16752942 -0.055024426 -0.3858254
0000f0 09 aa 73 bd 0d 8f 2f 3d 98 da af be 8b a8 e0 bc
       -0.05948833 0.042861033 -0.3434646 -0.027424118
000100 c5 db 0a be 51 64 6b be 37 24 c2 be 3c 84 a0 be
       -0.13560398 -0.22987486 -0.37918255 -0.31350887
000110 21 f1 56 bd 56 6b 64 3d 0d 75 02 3e fa c6 1f 3e
       -0.052476052 0.055766426 0.12739964 0.15603247
000120 79 3a 40 3e f2 2f 0f bd 32 5b 99 bd af f3 0b 3e
       0.18772306 -0.034957834 -0.07488097 0.13667177
000130 de 38 07 3b aa 31 29 bf 91 d5 5e bc c4 01 cc bc
       0.002063326 -0.66091406 -0.013600723 -0.024903186
000140 57 77 2a bd a0 b3 52 be aa 35 80 bc 86 99 d3 3c
       -0.041617718 -0.20576334 -0.015650589 0.025830042
000150 3b 0c 52 3e 74 7c 04 bd f8 ca 18 bd 12 ff 84 bd
       0.20512478 -0.03234525 -0.03730294 -0.06493963
000160 14 ab 93 be da 3a 3d 3c c6 79 e1 bc aa 17 07 bd
       -0.2884146 0.011549676 -0.027523886 -0.032981552
000170 2e 67 b3 3d f8 40 d1 bc 05 97 0f 3d 4c 94 b9 be
       0.08759914 -0.025543675 0.035056133 -0.36245954
000180 e8 ab 78 bc cc 0a 88 bd 82 e8 c7 bb b1 8a 34 be
       -0.015177704 -0.06642684 -0.006100715 -0.17631032
000190 91 a8 8d bc dc 7d 8c bd 73 95 3e 3e cc 85 4b 3e
       -0.017292293 -0.06859943 0.18611698 0.19875258
0001a0 93 73 0c bf 16 b5 dc 3d c1 18 23 be dd ad a0 bc
       -0.5486385 0.10776727 -0.15927412 -0.019614154
0001b0 9e b6 93 bd 4d 00 1a bc a7 0e 5e 3d 41 5c da be
       -0.07212566 -0.009399486 0.054213192 -0.4264851
0001c0 0b ef c5 bb 7d 55 09 bb 44 70 00 bf 88 b3 a1 be
       -0.006040459 -0.0020955496 -0.50171304 -0.31582284
0001d0 a7 e5 90 bc bb f7 bf be 6c b8 90 bc a3 87 83 be
       -0.017687632 -0.3749369 -0.017666064 -0.2568942
0001e0 a0 18 14 3d 50 63 8e bd d7 1c 07 bd 68 d1 23 3d
       0.036156297 -0.06952536 -0.03298649 0.039994627
0001f0 67 31 82 bc 4e 0a a2 be cb 93 e7 3d e9 ad ef bc
       -0.015892697 -0.31648487 0.11307486 -0.029257732
000200 cf 88 94 bd 3c e3 9a be 72 aa 32 be 06 9d bd ba
       -0.07252657 -0.3025149 -0.17447832 -0.0014466352
000210 6a ac 03 be f6 f2 95 3d 75 a2 81 be 41 66 73 3e
       -0.1285874 0.07321732 -0.25319257 0.23769476
000220 fd 39 bf bd 26 62 86 3e 82 ba 49 bd 42 de 7e 3e
       -0.09337232 0.26246756 -0.049250133 0.24889472
000230 9a ef 49 bd a2 16 bc 3d d2 1e 62 3c 17 da 4d be
       -0.049300767 0.09184004 0.013801293 -0.20102726
000240 2c 85 b1 bd e2 11 ea bd dd 98 71 3d 81 e4 f6 bc
       -0.08667979 -0.11429192 0.058983672 -0.030138256
000250 c3 0a 2d bd 07 5a 5c 3d ca 47 07 be c9 61 2c be
       -0.04224659 0.053796794 -0.13210979 -0.16834177
000260 fe 42 5a 3d 2f 65 8c 3c 6c 0e c6 bd 63 0b 72 3e
       0.053286545 0.017138092 -0.096707195 0.23637156
000270 bc 52 06 bd ec 77 78 3d 16 b1 41 be cc 95 ac 3b
       -0.032793745 0.06066124 -0.18915209 0.0052668806
000280 33 26 93 be bf 10 23 be db 24 aa bc 7b 51 25 be
       -0.2874008 -0.15924357 -0.020769527 -0.16144364
000290 90 40 b3 bd 8d ab 49 be 23 72 0d bc 01 5b 1f bd
       -0.08752549 -0.19694348 -0.008633169 -0.038905147
0002a0 b3 d4 2a bd a6 20 35 3c 21 14 ef bb fd 2a 3e 3c
       -0.041706752 0.011055147 -0.0072961007 0.011606929
0002b0 97 95 55 be 40 77 e0 bd ce f9 8d bc 07 97 2a bf
       -0.20857845 -0.10960245 -0.01733103 -0.666367
0002c0 7d d1 57 bd 2a 58 14 be 14 39 4f bd 42 f2 51 bc
       -0.052690018 -0.14486757 -0.050591543 -0.012814106
0002d0 05 d6 82 bc a7 b9 10 bf 3e d1 34 3e 11 40 0e be
       -0.015971193 -0.56533283 0.17657945 -0.13891627
0002e0 7d 39 32 be 01 6d 4c be a8 3c 91 bd 6a be 23 3d
       -0.17404743 -0.19963457 -0.070916474 0.039976515
0002f0 fa d1 14 3d 62 19 0f bd a3 bc 84 3d 9f fc 4e bd
       0.03633306 -0.034936316 0.06481292 -0.050533887
000300 d8 72 16 be 1a 59 17 bd 22 3b c3 bc a9 dc 1d bd
       -0.14692247 -0.03695021 -0.023831908 -0.038540516
000310 a8 63 6d bd 01 85 56 bc 6d e8 90 be 54 23 08 be
       -0.057956368 -0.013093234 -0.28302327 -0.13294727
000320 96 12 71 be 85 56 32 bf 45 91 97 3d 17 d6 3d 3e
       -0.23542246 -0.6966327 0.07400755 0.185387
000330 2a b9 4e bd 65 97 52 3e 52 8a a3 bd d1 48 8e 3d
       -0.050469555 0.20565565 -0.07985367 0.069474824
000340 7e eb c1 be 13 78 e1 3e dd 83 60 bd ec 7c 62 bc
       -0.3787498 0.44036922 -0.054813255 -0.013823729
000350 c1 80 91 3c 76 59 3e bd ee ba 21 3f 94 24 da bc
       0.01776159 -0.046472035 0.6317586 -0.02662877
000360 6c 3b a8 bd 48 01 32 be 23 09 0a 3d 7c b5 1b 3b
       -0.08214459 -0.17383301 0.03370012 0.0023759296
000370 88 5f 3d bd 27 8c f8 3e 49 fd 68 be 6f e9 a6 3d
       -0.046233684 0.48544428 -0.2275287 0.08149993
000380 58 ee 81 bd 38 e5 5e be 8b 4e 8c bc dc ef 6e 3d
       -0.063442886 -0.21767128 -0.017127296 0.058334216
000390 10 ef 14 bd 75 1e c3 3d 5b 1c 84 3e 7a 7a cb bc
       -0.0363608 0.095272936 0.25802884 -0.024838675
0003a0 6d ea ac bd 56 ee 79 be 20 66 f8 bc f9 85 a9 be
       -0.08443151 -0.24407324 -0.030322134 -0.33110026
0003b0 29 2a 24 3e a3 df 6c be 37 00 f2 3e b6 af 2a 3e
       0.16031708 -0.23132186 0.4726579 0.16668591
0003c0 eb da 89 be b7 b0 3b be d8 51 c7 bc 59 3e 5d bc
       -0.26924834 -0.1832913 -0.024331018 -0.013503634
0003d0 b7 59 74 3e e6 04 6e bd b9 c6 44 3d e6 8c 97 bd
       0.23862348 -0.05811014 0.04804108 -0.07399921
0003e0 45 b5 d0 bd 4d eb 2d be fb 2d 3c 3d 8f ad 10 3c
       -0.101908244 -0.16984291 0.045942288 0.008830442
0003f0 68 5b e0 bc c2 df 87 bc 17 0e 18 be 35 bd b4 bc
       -0.027387336 -0.016586188 -0.14849125 -0.022062877

linear2.weight f4 [64, 256]
000000 e7 83 e7 bc a5 cc 0f bd 70 42 0f bf e0 e0 32 be
       -0.028261138 -0.035107274 -0.5596075 -0.17468596
000010 73 ef 7b 3e ef ba 34 bd fb 4f 99 bc 44 e8 95 bd
       0.24603061 -0.044123586 -0.018714895 -0.07319692
000020 ec 83 1a bd d7 5b 30 3c 97 b9 0a bd a6 d6 9a bc
       -0.037723467 0.010764084 -0.0338684 -0.01890118
000030 58 81 b7 3e e2 22 1c 3d 4c a8 af 3d 3e 4a 87 bc
       0.3584087 0.038119204 0.08577022 -0.016514894
000040 75 52 1b bd a1 4f 46 be 95 d9 22 bd 3a 3e 4d bd
       -0.037920434 -0.19366314 -0.039758284 -0.050108172
000050 95 9c d6 bc f6 bc 82 3e 81 3b 52 bc 63 36 93 3d
       -0.026197711 0.2553479 -0.01283157 0.07188108
000060 4a 7c ca bc 9c e5 59 3d 5d d5 f0 3d 5b 93 72 be
       -0.024717469 0.05319749 0.11759446 -0.23689024
000070 7a b2 29 3e 1a f4 b5 be b1 0d 9b be 66 a6 12 3d
       0.1657199 -0.35537797 -0.30283883 0.03580322
000080 e5 a8 0a be b5 8e 6b 3c 5a 13 9f bd 1c fe 2d bd
       -0.1354099 0.014377286 -0.07767363 -0.042478666
000090 1e e5 22 be 2a 3a 17 be 48 21 2f 3d f4 89 94 3e
       -0.15907714 -0.14768282 0.04275635 0.290115
0000a0 5a 18 88 3d 54 94 30 3e 91 cf 30 3e 1a b0 a2 3d
       0.0664527 0.17244083 0.1726668 0.07943745
0000b0 36 bc a0 bb 8e 77 8b bc ed 22 18 3c 1f 05 10 be
       -0.004905249 -0.017024782 0.009285671 -0.14064454
0000c0 1f 9a 48 be ff c2 3e bf 5d d0 8a be aa 57 39 3d
       -0.19590043 -0.7451629 -0.27112094 0.04524962
0000d0 c9 2b 0b bd d6 3b 4a 3e 4c 29 3a be ac 83 2a 3d
       -0.033977304 0.19749388 -0.18179816 0.04162948
0000e0 76 d1 09 bd bb fb 1a 3e 7a 63 08 bd 0c 28 33 bd
       -0.033647023 0.1513509 -0.033297993 -0.043739364
0000f0 b0 e3 f7 bc ca d5 1e be b2 a4 07 be 6e c7 2c 3c
       -0.030259937 -0.15511242 -0.1324642 0.010545595
000100 84 0c 46 3d 99 36 a6 3d c2 80 d3 3d 6e 86 b4 3d
       0.04835178 0.081158824 0.10327293 0.08814703
000110 9e a9 ce 3d 94 78 68 be 14 eb a6 bd eb 11 00 be
       0.10090946 -0.22702247 -0.08150306 -0.12506835
000120 65 b2 25 bd 91 12 7b 3d fb d9 67 bb 05 d5 f8 bb
       -0.040453333 0.061297003 -0.003537773 -0.0075937533
000130 fe 72 0b bd a4 b2 70 3e eb f5 09 bd 4d 67 5f bd
       -0.034045212 0.23505646 -0.03368179 -0.054541875
000140 6c 38 65 bd 70 85 55 3c d6 01 00 3d 2e 6b f8 bc
       -0.05596201 0.013032302 0.03125175 -0.030324545
000150 b0 7f 35 bd 75 c5 81 3c 9b 65 65 bd 09 0a 84 3d
       -0.044311225 0.015841225 -0.0560051 0.064472266
000160 11 14 d7 bc 9c a3 15 be ce 5c d3 3d b4 dd 83 3d
       -0.026254686 -0.14613193 0.103204355 0.06438771
000170 4c 5e 30 bf 78 2f 39 3d d6 a6 d8 3d dc b4 00 3d
       -0.68893886 0.045211285 0.105786964 0.03142248
000180 77 a5 65 be e8 59 2c bd cd 13 0c 3e 2b 61 11 bd
       -0.22426401 -0.04207793 0.13679428 -0.035493057
000190 9f d1 7c be c8 4e 5e be 97 cc 0c be e5 7e e6 3e
       -0.24689339 -0.2170974 -0.1374992 0.45018688
0001a0 0a 1f 9a bd 38 66 93 bd c9 c6 07 bd a7 16 42 3d
       -0.075254515 -0.07197231 -0.03314856 0.047384884
0001b0 72 26 53 bd a8 e3 6a 3d ee 44 f7 bc 30 6f bd bd
       -0.051550336 0.057346016 -0.030184235 -0.09249723
0001c0 af 75 e7 ba 92 05 0a bd 24 fd 0d 3e 3c 26 25 3e
       -0.0017658974 -0.03369672 0.13866097 0.16127867
0001d0 10 cc ff bc c9 f5 d1 3d 00 2c 22 3d 83 4d 8a 3d
       -0.031225234 0.10251958 0.039592743 0.067530654
0001e0 07 88 dd bd a1 3c 09 bd be af db 3c 2d d9 21 3d
       -0.10816961 -0.033505086 0.026817199 0.039513756
0001f0 1e 70 e1 3c 0e 35 8c 3d 98 47 1e bd 45 56 2c 3d
       0.027519282 0.06846057 -0.038642496 0.04207446
000200 2c a9 80 be 2d 68 57 bd b2 e7 85 3e 2a 8f fa bd
       -0.25129068 -0.052589584 0.26153332 -0.12234338
000210 03 05 04 bc a8 c3 11 3e e7 94 be be 3a 6d da be
       -0.0080578355 0.14234793 -0.37222978 -0.42661458
000220 1d 5b 9b be 1b b3 4d 3d 89 fe 15 3d 2d fd b5 bd
       -0.3034295 0.050219636 0.036619697 -0.0888618
000230 de 13 22 bd 34 2c f6 3d 3e 31 86 bd 02 da f3 3d
       -0.039569728 0.1202015 -0.06552361 0.11906816
000240 9a ad 88 3e a2 35 86 bc e0 26 c6 3e 01 ef 62 bb
       0.26694947 -0.016382996 0.38701534 -0.003462732
000250 15 7a 7d bc 68 81 42 be 91 fa 8a 3d d4 8f 1b be
       -0.015471001 -0.18994677 0.06786073 -0.15191585
000260 6a d3 98 bd 4f 6b db 3c 21 b2 6f bd 29 9b 00 be
       -0.07462199 0.026784567 -0.058519486 -0.12559189
000270 3f 82 71 bd 1d b7 10 3d 18 19 be be 95 35 b7 3d
       -0.058962103 0.03533088 -0.3712852 0.08945767
000280 ba 3a a0 bc 0f 1d 8f 3e 0a c4 d7 3c 8c cb b0 3c
       -0.019559253 0.27951857 0.026338596 0.021581434
000290 f4 e4 c6 3e b0 98 18 3e b8 d0 59 bc 7e 24 df bc
       0.38846552 0.14901996 -0.013294391 -0.02723908
0002a0 db ac d1 bd 6d 16 71 bc fa 87 23 bd cf 97 30 bd
       -0.10238048 -0.014714819 -0.0399246 -0.043113526
0002b0 06 46 89 be cb 50 d7 bd 35 2e 37 3d 96 c4 b6 ba
       -0.26811236 -0.10513457 0.0447218 -0.0013944085
0002c0 34 b2 82 39 0c dc 70 bd 10 c2 02 3d 41 36 5f bd
       0.00024928304 -0.058803603 0.031923354 -0.0544951
0002d0 da 28 54 3d 81 5c 4c be 12 86 ce bd 35 f0 33 be
       0.05179677 -0.19957162 -0.10084166 -0.175721
0002e0 c4 f0 d9 3d 2c 8b e5 be f6 bc 50 3d e9 4d 63 3e
       0.106416255 -0.44832742 0.050961457 0.22197689
0002f0 dd 59 09 3d 30 a1 66 3e fc 85 81 be ea 49 fb bc
       0.033532966 0.22522426 -0.25297534 -0.030674893
000300 34 c8 8b 3b 0f 81 ba 3c 58 96 41 bd 3c 72 76 3d
       0.0042658094 0.022766618 -0.04726252 0.060167536
000310 bb f3 98 be 25 f7 10 3d 03 4a 0a 3e 22 70 2b 3e
       -0.29873452 0.035391945 0.13504796 0.16741994
000320 6a ee cd 3d 62 22 ea bd 1f ba ad 3b 17 6f bc bd
       0.100552395 -0.11432339 0.0053017284 -0.09200876
000330 0a 7a 38 3c ba 63 0f 3c 72 7c ee bd 6e 02 de bc
       0.011259565 0.008751804 -0.1164483 -0.027100768
000340 b0 81 47 be 04 e5 3a be 6c b0 7e bd f1 0b 89 3c
       -0.19483066 -0.18251425 -0.062179968 0.016729327
000350 a5 de 92 bb 13 61 ae 3d 93 17 8a be 54 58 33 bd
       -0.0044821077 0.08514609 -0.2697111 -0.04378541
000360 f5 39 89 bb e1 63 e5 bd 29 df fb bd 5c 54 39 bd
       -0.004187817 -0.11200691 -0.12298424 -0.045246467
000370 33 54 1c bd b0 1d aa be e9 df 34 3d d8 73 50 be
       -0.038166236 -0.33225775 0.04415885 -0.20356691
000380 bc dc 50 3c 79 bf 1a 3e 98 7a 5a bd 2e b3 0d 3e
       0.01274794 0.15112104 -0.05333957 0.13837883
000390 eb df c0 bc b5 8c ef 3d 04 99 d9 bd 2a b7 3e 3d
       -0.023544272 0.116967596 -0.106248885 0.046561398
0003a0 17 79 2c 3e 93 3d f4 bd 90 45 7c be 78 77 11 be
       0.16843067 -0.11925807 -0.24635911 -0.1420573
0003b0 c3 8c 10 be 69 1a 92 3e 48 1e 3a be 5f 1c 91 3d
       -0.14116196 0.28535774 -0.18175614 0.070854895
0003c0 bc 89 e9 3d 36 a1 4f 3c d5 f7 74 3b 09 1e 3e bd
       0.11403224 0.012672713 0.0037379165 -0.046415363
0003d0 97 83 a6 be cd 60 4a 3b 23 81 59 3c dc 95 47 ba
       -0.3252227 0.0030880452 0.0132754175 -0.00076135783
0003e0 c4 b6 11 be 17 6c 40 bf 02 47 b6 bd af 4e e7 bb
       -0.14229876 -0.7516493 -0.089002624 -0.0070589404
0003f0 c7 43 38 bd 3e 3b 27 3d 12 d6 2f 3d 10 88 82 bd
       -0.044986513 0.040827982 0.042928763 -0.06373608

linear2.bias f4 [64]
000000 a2 d6 9b 3e a0 3f 39 3f 1b 44 36 be da b4 a4 be
       0.3043719 0.7236271 -0.17799418 -0.3216923
000010 64 55 20 bd 36 02 be bd 30 35 11 3c cd 2c 15 be
       -0.039143935 -0.092777655 0.008862779 -0.14567871
000020 39 86 2c be 4f 37 00 3d 7b 5f 2e 3e 77 11 37 bd
       -0.16848077 0.031302746 0.1702861 -0.04469439
000030 7b d1 37 3e df e8 50 be 48 c3 f8 3e 71 33 85 bc
       0.17951004 -0.20401333 0.48586488 -0.01625988
000040 d4 c3 de 3d 7b 72 d1 bd 0c be 6e be c2 ca b3 be
       0.10877195 -0.102269135 -0.23314685 -0.3511563
000050 01 9d 03 3f 25 ae 02 40 21 24 3c 3c 9e e5 72 bd
       0.51411444 2.041879 0.011483223 -0.05930101
000060 f3 4c 95 be 68 ce 29 bf 1c 75 54 be 20 cb 32 bd
       -0.2916027 -0.66330576 -0.20747799 -0.043650746
000070 b3 4b 26 bd f3 1e 8e be d4 9b 2d bf cf 58 8c bd
       -0.040599536 -0.27757987 -0.678159 -0.068528764
000080 51 2b 62 3e 0a 0a 45 be c0 c9 85 be 74 80 80 be
       0.22086836 -0.19242111 -0.26130486 -0.25098002
000090 27 6a 63 be 47 db 42 bd 68 f5 d1 3c 0b 01 48 3f
       -0.22208463 -0.0475724 0.025629714 0.7812659
0000a0 cb 7e dc bd bd 08 fe be 6b b1 ff bd a1 5c 28 be
       -0.10766371 -0.49616042 -0.12485012 -0.16441585
0000b0 d9 ed 93 bd f0 fd 9c 3f b8 19 37 3d 8a 31 e3 be
       -0.072231 1.2264996 0.04470226 -0.44373733
0000c0 b4 3f b5 bd bb c4 3a 3e 22 35 b8 bd 1e aa be bd
       -0.08850041 0.18239109 -0.08994509 -0.09309791
0000d0 7d 39 f3 bd b9 48 fe 3d 3e e6 62 bd 72 f9 94 3c
       -0.118761994 0.124162145 -0.055395357 0.018185351
0000e0 2b b3 1d be ea 89 04 be bc 94 11 bf 84 ab ac bd
       -0.15400378 -0.12943235 -0.56867576 -0.084311515
0000f0 9e 05 b8 bd 4c d2 5a bd 27 ff d5 be b5 a5 5e 3e
       -0.089854464 -0.05342321 -0.41796228 0.217429

linear3.weight f4 [10, 64]
000000 6e bb fa bb a8 a7 db 3d 4c a6 ab bd be ff 24 be
       -0.007651738 0.10725337 -0.08381328 -0.16113183
000010 40 b8 26 3c 47 02 24 be 02 63 3e bd ba 8c f1 bc
       0.010175765 -0.16016494 -0.04648114 -0.029486049
000020 04 a8 45 bd e2 68 0a bd 28 8d e3 3c 80 d7 ba 3c
       -0.048255935 -0.03379143 0.02777727 0.022807837
000030 8d f3 97 bd 00 88 c9 bd 94 60 02 3d f0 de 50 bd
       -0.074195005 -0.09840393 0.031830385 -0.05099386
000040 60 9b c3 bc 37 58 c6 3d da ae f5 bd 34 95 24 be
       -0.0238778 0.096847944 -0.11996241 -0.16072541
000050 80 95 93 3a 0b 82 01 be 80 c3 32 3c 10 cb 83 bc
       0.0011259764 -0.12647264 0.010910869 -0.016088039
000060 30 3c d3 bc eb 52 29 be 26 ac e8 bd f8 fe 37 bd
       -0.025785536 -0.16535537 -0.1136096 -0.04492089
000070 80 76 4b bb 87 b1 34 be 9e e8 47 bd 2a 02 9f bd
       -0.0031045973 -0.17645846 -0.048805825 -0.07764085
000080 5d e9 61 bd 04 60 f8 bc ac a8 9b bc fd 75 f7 bd
       -0.055154193 -0.030319221 -0.019001327 -0.12083051
000090 08 88 ca bd 90 07 4f bd 40 c2 39 bd 10 9b fe bc
       -0.09889227 -0.05054432 -0.045351267 -0.031079799
0000a0 db 08 89 bd ca a6 88 bd 91 49 82 bc 89 4e a0 bc
       -0.06691142 -0.066724375 -0.01590422 -0.019568698
0000b0 d1 c6 96 bd c6 fd f7 bd 78 4d f3 bd 9e 5e 2c be
       -0.0736214 -0.1210895 -0.1188001 -0.16832969
0000c0 64 0e 2b bd 0d 12 dd bd 11 d0 19 be b8 94 93 3c
       -0.04176177 -0.107944585 -0.15020777 0.01801525
0000d0 a2 41 e1 bd 27 ba 5d bd a7 a4 03 bd c0 3c 0b 3b
       -0.109988466 -0.054132607 -0.032139447 0.0021245927
0000e0 ac 05 80 3c 6a a7 88 bd dc d5 47 be 8f 60 92 bd
       0.015627705 -0.06672557 -0.19515175 -0.07147323
0000f0 c0 66 e0 bb 40 88 20 3b 6a f8 2c bd e3 a7 d6 bd
       -0.0068481863 0.0024495274 -0.042229094 -0.104812406
000100 7c 83 55 3f d4 f4 69 be 79 de 1a 3f 17 30 b7 bd
       0.83403754 -0.22847301 0.60495716 -0.08944719
000110 a9 bb 12 be 19 8d 57 be 25 49 cb bd 0b 16 2d be
       -0.14329399 -0.21049918 -0.099260606 -0.1690294
000120 ae b9 b7 3d 10 ae 2a bd 64 04 f0 3e 99 e1 c9 3d
       0.089709625 -0.041669905 0.4687835 0.098574825
000130 63 a9 cd bd 0d b3 c0 3e 72 74 66 be e9 6d be 3d
       -0.100420736 0.37636605 -0.22505358 0.092983074
000140 f5 0e f9 3d 80 3b d3 3d a5 97 59 be 02 86 4a 3f
       0.12161056 0.10314083 -0.21249254 0.7911073
000150 33 ad ba 3d 75 d6 3d be e9 21 47 be 82 b8 6d 3d
       0.091150664 -0.1853884 -0.1944653 0.05803729
000160 ec 5a cc bc d6 e5 31 3e 6e 8e 25 3f e3 59 a8 3d
       -0.024945699 0.17372832 0.64670455 0.082202695
000170 9f 06 2a 3e f8 74 c8 bd 3e 29 6d 3f 1e ab fa bd
       0.16604088 -0.09787935 0.92641056 -0.12239669
000180 d4 2e dd 3e 77 bc 86 be 91 50 c4 be 8d ea d8 3e
       0.4319979 -0.26315662 -0.38342717 0.42366448
000190 85 94 d9 bd 1e 1a 1e be f2 03 76 be 13 e5 57 be
       -0.10624031 -0.1543965 -0.24024943 -0.21083479
0001a0 3d 8e a2 3e 94 07 df 3e ab 93 50 3c 0c 17 52 be
       0.31749144 0.4356047 0.012730519 -0.20516604
0001b0 65 b7 1b 3e c1 ac d9 3e cd 9c c4 3e e1 c3 48 bf
       0.15206678 0.42514613 0.3840088 -0.7842389
0001c0 29 90 22 bc ac 99 87 bd 20 b9 b5 bd 58 f7 2b be
       -0.009922066 -0.066211075 -0.088732004 -0.16793573
0001d0 37 80 25 3e f1 80 72 be 88 15 f7 bd 65 d4 04 3f
       0.16162191 -0.23682 -0.12064654 0.5188659
0001e0 a2 57 b1 be 5e cd fa bd a1 e7 9b 3e 35 cf 8e 3b
       -0.3463717 -0.12246202 0.30450156 0.004358197
0001f0 31 5f ca bd bc 7c f4 3d 8e ad 09 3f 91 12 65 bd
       -0.098814376 0.11937854 0.5378045 -0.05592591
000200 de bc 27 3e 20 ab d5 be cb a9 49 be a3 bb 53 3e
       0.16380641 -0.4173212 -0.19693677 0.20677046
000210 80 80 05 be 54 44 13 3f 2b b9 19 3f 80 54 d8 3d
       -0.130373 0.57526135 0.6004817 0.10562992
000220 0d eb ec be 07 ec a6 3e a6 a3 97 3f f2 58 b4 3d
       -0.4627308 0.3260195 1.1846817 0.088060275
000230 1e 4a 8d 3e cb 53 b0 3e 27 b6 01 3e 22 8e 14 3e
       0.2759561 0.3443893 0.12667142 0.14507344
000240 ef 5a 3f be 7e ae 80 3d 50 82 1a 3f fa 4a a0 3d
       -0.18687032 0.06283282 0.6035509 0.07826801
000250 d8 96 d0 be c9 c9 a3 3e 50 34 72 be 7a d1 b0 3d
       -0.40740085 0.31989887 -0.23652768 0.086337045
000260 ac cb a8 3e 05 3f e8 3e a5 4d e8 be 90 7a f2 3b
       0.3296789 0.4536058 -0.45371738 0.0073998645
000270 38 cb f4 3d 70 04 b2 3e d9 9e 61 bd 67 83 ed bd
       0.119528234 0.3476901 -0.05508313 -0.11597329
000280 e1 d2 bf be 9a 53 cb 3e a1 af 96 bf 1f a8 e4 be
       -0.37465575 0.3971222 -1.1772348 -0.44659516
000290 8d 50 8a 3e b9 f8 30 3e a7 c5 78 3e 34 02 8e be
       0.2701458 0.1728238 0.24294148 -0.27736056
0002a0 f8 db b8 be 98 43 55 3e 1a 68 db 3b 75 7a 01 be
       -0.36105323 0.20826566 0.0066957595 -0.1264437
0002b0 ae e9 76 3e 2a e2 a7 be 9c 67 12 3f 83 17 13 bf
       0.24112579 -0.32789737 0.57189345 -0.5745775
0002c0 9a f2 30 bd 89 db 50 bd 1f 93 6f be 8e 19 95 be
       -0.043200113 -0.050990615 -0.23395966 -0.2912106
0002d0 8b 4b 5f be 51 1d ac be f9 11 6a 3c 63 7c 34 3f
       -0.21806161 -0.33616117 0.014286512 0.705023
0002e0 8c 29 d6 bd 90 19 0f 3e 87 7e 2e 3e d7 76 e2 3d
       -0.10457143 0.13974595 0.17040454 0.11057823
0002f0 a4 f2 6b 3d a2 84 06 bd 66 3a a2 3d e0 cf 22 be
       0.057604447 -0.032841332 0.07921295 -0.1589961
000300 2a f3 01 bf fb 7d b9 3e d6 82 96 be 70 6a fe 3e
       -0.50761664 0.36228928 -0.29396695 0.4969058
000310 d8 4e 2c be 0a 44 0b bf 24 be a7 3e a9 1d 0f 3e
       -0.16826952 -0.54400694 0.32762253 0.13976158
000320 1b 77 ad 3d 00 69 15 3d 96 d1 34 3f 02 7c 1b 3e
       0.08469983 0.03647709 0.706323 0.15184024
000330 c5 44 13 3f be c3 a2 bd a4 8f d5 3e bb 1a b0 bd
       0.5752681 -0.07947491 0.41711152 -0.085988484
000340 4a 65 5f be 85 4c 07 bd 7d 9a 59 3d ee 3d 0c bd
       -0.21815982 -0.03303196 0.053125847 -0.03423875
000350 c6 55 88 3f f9 b3 35 3d 51 83 6b 3d 01 27 51 bd
       1.0651176 0.04436109 0.05749828 -0.051062588
000360 42 3b e2 3e bf dd 07 3d df d3 8a be 8d 8d be 3c
       0.44185835 0.033170458 -0.2711477 0.023260856
000370 b9 79 23 3e fb bf 84 3e 7b f8 ad bd 20 f7 ba bd
       0.15964402 0.2592772 -0.084946595 -0.091291666
000380 dd 28 a9 bd 58 70 1d be 9a b2 80 be 26 03 63 be
       -0.08259747 -0.15374887 -0.25136262 -0.2216917
000390 4d 5a c4 bd ec 68 15 3d e6 ba ca 3e 87 27 b3 3d
       -0.09587536 0.036477014 0.39595717 0.087477736
0003a0 cf f7 c5 be c7 d7 6f be 8f 93 da bc 7b 64 fb 3e
       -0.38665625 -0.23422156 -0.02668169 0.49100098
0003b0 bb e8 9a 3e ac b0 74 3f ff d0 5e 3c c5 03 02 bf
       0.30255684 0.9558208 0.013599633 -0.50787
0003c0 1d 00 57 3e 9c b4 75 bd 1f ac 1b be c9 fb 28 bd
       0.20996137 -0.059986696 -0.15202378 -0.041255746
0003d0 f7 33 16 be 67 38 98 be 7e b9 17 be 79 78 6b 3f
       -0.1466826 -0.29730532 -0.14816853 0.919807
0003e0 4a e2 41 3d e0 84 dc bc 66 19 d3 3e b2 15 ec bd
       0.047334947 -0.026918828 0.41230315 -0.115275756
0003f0 f9 d5 82 3e fa f1 4f 3d 52 4e 45 be 4a 52 93 be
       0.25553873 0.050767876 -0.19268158 -0.2877372

linear3.bias f4 [10]
000000 54 fa 99 be c2 25 63 bf c8 30 0e 3e a1 b3 c3 bd
       -0.30073798 -0.8872949 0.13885796 -0.09555746
000010 6c 49 0c 3d 60 8c 06 be 6c d0 b2 be ae 4e 84 bf
       0.034249708 -0.13139486 -0.34924638 -1.0336511
000020 5e cd bc 3f a2 42 b2 3f
       1.4750173 1.3926585
