model/model.pkl (torch, 624763 bytes, 8 tensors)

conv1.weight f4 [32, 1, 5, 5]
0	0x3e29b0e0	0.16571379
1	0xbdc2df9b	-0.095153056
2	0xbd542faa	-0.05180327
3	0x3dfe598e	0.12419425
4	0xbc5a6a99	-0.013331079
5	0xbdae4422	-0.08509089
6	0x3d215ba9	0.039394055
7	0x3e1649d1	0.14676596
8	0x3e1023ad	0.14076109
9	0xbe1c5c1d	-0.15269513
10	0x3e8aa1a3	0.27076444
11	0x3e633793	0.22189169
12	0x3e9f40f4	0.31104243
13	0x3dfb6bfb	0.12276455
14	0xbd6b9280	-0.05751276
15	0x3e90bb39	0.2826784
16	0x3ea76c0b	0.32699618
17	0x3e45e2a5	0.1932474
18	0x3e5988df	0.21243618
19	0x3baa8f10	0.0052050427
20	0x3e586a4c	0.21134299
21	0xbdca7ea3	-0.09887435
22	0x3e25318c	0.16132182
23	0x3e8be21d	0.27320948
24	0xbcedd0a7	-0.029030157
25	0xbd8b72bf	-0.068089955
26	0x3be6735c	0.007032795
27	0xbdab2ef7	-0.08358567
28	0xbe029c69	-0.12754978
29	0xbcf371d7	-0.029717369
30	0xbbad8181	-0.005294979
31	0x3c223dd9	0.009902441
32	0xbe4d7fa7	-0.20068227
33	0xbe4b8a0c	-0.1987688
34	0x3c89b9d8	0.01681225
35	0x3cd24f2e	0.025672521
36	0xbd0ede46	-0.034879945
37	0x3dafd781	0.08586026
38	0xbe0fd886	-0.14047441
39	0xbdc5bbdf	-0.09654974
40	0xbdbe5950	-0.09294379
41	0xbdcee560	-0.101023436
42	0xba083280	-0.00051955134
43	0xbdf7e1e5	-0.12103633
44	0xbbe8bc68	-0.007102538
45	0x3cf85a1d	0.030316407
46	0xbd226aa9	-0.0396525
47	0xbe394024	-0.18090874
48	0xbe372f35	-0.17889102
49	0x3e7705ca	0.24123302
50	0x3e2c7935	0.16843112
51	0xbe20ca08	-0.15702069
52	0x3dbaa371	0.09113205
53	0x3e73c4a9	0.23805489
54	0x3e35d23e	0.17755982
55	0x3e11d6cf	0.14242099
56	0xbe0f2b01	-0.13981248
57	0x3d990433	0.07471504
58	0x3ea7e443	0.32791337
59	0xbe1fac36	-0.15593037
60	0x3e3cebbc	0.184493
61	0x3d2ad23d	0.041704405
62	0x3e146ec8	0.14495385
63	0x3e29f1aa	0.16596094
64	0xbc9ccf59	-0.01914184
65	0xbdd2c8b5	-0.10292188
66	0x3e79a45b	0.24379103
67	0x3e9587dd	0.29205218
68	0xbbb8c6f5	-0.005638952
69	0xbe6189fd	-0.22025295
70	0x3e1cf274	0.15326864
71	0x3e641eed	0.22277422
72	0xbcec9973	-0.028881764
73	0xbe00dc49	-0.12584032
74	0xbe288de0	-0.16460371
75	0xbe88125f	-0.26576516
76	0xbe123409	-0.14277662
77	0xbe932429	-0.28738526
78	0x3e4a427b	0.19751923
79	0x3e868bb0	0.26278448
80	0xbea43f38	-0.32079482
81	0xbe24d813	-0.16098051
82	0xbdb3092b	-0.08741983
83	0x3d401ab3	0.046900462
84	0x3ed35f28	0.41283536
85	0xbe1cb97c	-0.15305132
86	0xbdf61d07	-0.12017255
87	0x3e2ea9aa	0.17056909
88	0x3ed687d1	0.41900495
89	0x3d8ca5c8	0.06867558
90	0xbe63be2f	-0.22240518
91	0xbca5371a	-0.020167876
92	0x3e259465	0.1616989
93	0x3e20bfdd	0.1569819
94	0x3e1197f5	0.14218123
95	0x3d62e82e	0.055397205
96	0x3e00fb14	0.12595779
97	0x3e91611b	0.28394398
98	0x3d8170dc	0.06320354
99	0x3d2f7dac	0.04284446
100	0xbde337d9	-0.110946365
101	0x3da5a6ba	0.08088441
102	0xbd4dd830	-0.050255
103	0xbd62b1b8	-0.055345267
104	0x3e9a0a43	0.30085954
105	0xbdd2df3a	-0.10296483
106	0x3cdd6799	0.027026938
107	0xbe3be82c	-0.18350285
108	0x3e66c1dd	0.2253489
109	0x3e1d2147	0.15344726
110	0x3bfd44e3	0.007729159
111	0xbd8f30c7	-0.069917254
112	0x3d2c0be6	0.042003535
113	0x3dfb66ee	0.12275492
114	0xbdddc094	-0.10827747
115	0xbe1c3d3c	-0.15257734
116	0xbd475533	-0.048665237
117	0xbe416d43	-0.18889336
118	0x3e3ea84e	0.1861889
119	0xbd39d8b7	-0.04537269
120	0xbe4947aa	-0.19656244
121	0xbe4ddf18	-0.20104635
122	0xbd966ce6	-0.073449895
123	0xbdf536fc	-0.11973378
124	0x3c78eafb	0.015192742
125	0x3e221610	0.15828729
126	0x3ee07c08	0.43844628
127	0x3ebb7f35	0.3662049
128	0x3f021db3	0.5082657
129	0x3ec7cc80	0.3902321
130	0x3e5ac244	0.21363169
131	0x3e2b218f	0.1671202
132	0x3de83341	0.11337901
133	0x3e330555	0.17482503
134	0x3e8d2c88	0.27573037
135	0xbe44c2b9	-0.19214906
136	0xbe3a9467	-0.18220674
137	0xbd2200c8	-0.039551526
138	0xbeac85c1	-0.33695796
139	0xbd37733a	-0.044787623
140	0xbe247767	-0.16061173
141	0xbe88f3f1	-0.26748613
142	0xbeb13107	-0.34607717
143	0xbe2312b8	-0.1592511
144	0xbe5205d2	-0.20510033
145	0xbe8502f4	-0.25978816
146	0xbe8acc12	-0.27108818
147	0xbe4e28b0	-0.20132709
148	0x3cac8326	0.02105863
149	0x3c3393b8	0.010960512
150	0x3e3cd422	0.18440297
151	0xbd85dfb9	-0.06536812
152	0xbce09bb5	-0.027417997
153	0xbe2fb2f0	-0.17158103
154	0x3e4aee54	0.19817477
155	0x3da38b91	0.079856046
156	0xbe338d2d	-0.17534323
157	0xbdd5a139	-0.104311414
158	0xbde3bf72	-0.111205
159	0x3e4ca63f	0.19985293
160	0xbd5736c7	-0.052542474
161	0xbe41f28d	-0.18940182
162	0xbd28caf6	-0.041209184
163	0xbd8b9bb0	-0.068168044
164	0x3da386ea	0.07984717
165	0xbe2d489f	-0.16922234
166	0xbe5cff49	-0.21581759
167	0xbd614e6c	-0.05500643
168	0x3e2cdf0b	0.16881959
169	0xbdffaf53	-0.12484612
170	0xbe127194	-0.14301139
171	0x3e3ebc72	0.18626574
172	0xbd5ed037	-0.054397788
173	0x3c768d19	0.015048289
174	0xbd239ce6	-0.039944552
175	0xbc6d414f	-0.014480903
176	0xbd74b439	-0.059742186
177	0x3c153b5c	0.009108391
178	0x3e6914db	0.22761862
179	0x3e8029ff	0.2503204
180	0x3e568234	0.20948106
181	0x3e9c1c02	0.30490118
182	0x3e8d1160	0.2755232
183	0x3e5825fa	0.21108237
184	0x3e30b412	0.17256191
185	0xbe1f6c85	-0.1556874
186	0x3bc35d0f	0.005962021
187	0xbcda003a	-0.026611436
188	0x3e1ad3a4	0.15119797
189	0x3ea53b12	0.3227163
190	0x3cfeeace	0.031117823
191	0xbcca1d11	-0.024672063
192	0xbe20145e	-0.1563277
193	0xbe3aa7af	-0.18228029
194	0x3dc7f505	0.09763531
195	0xbe5368cd	-0.20645447
196	0xbd867c10	-0.06566632
197	0xbe590aa1	-0.21195461
198	0x3c903b3e	0.017606374
199	0xbb18bdc6	-0.0023306473
200	0x3e82ed65	0.25571743
201	0x3baa4118	0.005195748
202	0xbc4d58c8	-0.012533374
203	0x3e01d952	0.12680557
204	0xbdda2ba6	-0.106528565
205	0x3e5bd5a5	0.21468218
206	0x3c90f374	0.017694212
207	0x3db17052	0.086640015
208	0xbdb6c145	-0.08923582
209	0x3c23e84b	0.010004113
210	0x3dd74e07	0.105129294
211	0x3e066284	0.13123518
212	0x3e34ab85	0.17643555
213	0xbe8ebdc8	-0.27879167
214	0xbe0d96e6	-0.13827094
215	0x3da7c972	0.081927195
216	0x3e9234ac	0.2855581
217	0x3d8974f9	0.06711764
218	0xbe879a9e	-0.2648515
219	0xbe0f9720	-0.14022493
220	0x3bb90cbe	0.005647271
221	0x3e9babfe	0.30404657
222	0xbdc3ac78	-0.0955438
223	0xbd4ec36c	-0.050479338
224	0xbdbac3d7	-0.09119385
225	0x3cdad0c7	0.02671088
226	0xbde8baf4	-0.113637835
227	0x3d3411af	0.043962177
228	0x3e1cb783	0.15304379
229	0x3e180897	0.14847027
230	0x3c2afca0	0.010436207
231	0x3e12c6de	0.14333674
232	0xbe28e812	-0.16494778
233	0xbe13bbc5	-0.14427097
234	0xbd3db4b0	-0.046314895
235	0x3ea1f379	0.31631067
236	0x3e53215b	0.20618193
237	0xbe784e92	-0.24248722
238	0x3d21c130	0.03949088
239	0xbe854438	-0.2602861
240	0x3e930768	0.28716588
241	0x3db6cec2	0.08926155
242	0x3d85d68d	0.06535063
243	0xbd7e64b2	-0.06210775
244	0xbd8c17eb	-0.068404995
245	0xbd625b3b	-0.055262785
246	0x3df9973f	0.12187051
247	0x3d21fb4e	0.039546303
248	0x3d90f416	0.07077806
249	0xbe1bacbd	-0.15202613
250	0x3d8c40a7	0.06848269
251	0xbcfbcc6a	-0.03073712
252	0xbd8bab03	-0.06819727
253	0x3e940d60	0.28916454
254	0x3e8c9376	0.27456254
255	0x3e487884	0.19577223

conv1.bias f4 [32]
0	0x3d2db0f9	0.042405102
1	0x3e679a94	0.2261756
2	0xbe1e5efe	-0.15465924
3	0xbe0ae03f	-0.13562106
4	0x3e953dfb	0.2914885
5	0x3e3591b2	0.1773136
6	0x3e50333a	0.20332041
7	0x3ca243d2	0.01980773
8	0xbdfc6dd0	-0.123256326
9	0x3d0f0097	0.034912672
10	0xbce2b5e3	-0.027674621
11	0x3da5dfba	0.08099313
12	0x3c141611	0.009038464
13	0xbae6fff8	-0.0017623892
14	0xbd4553d3	-0.048175644
15	0xbd8bfeb0	-0.06835687
16	0xbe1da00e	-0.15393087
17	0xbd922e11	-0.07137693
18	0xbb743c99	-0.0037267564
19	0xbe030d5b	-0.12798063
20	0xbc80e4ab	-0.015734037
21	0x3e254c98	0.161425
22	0xbcccaa04	-0.024983414
23	0x3a1d6a54	0.0006004919
24	0x3b73261d	0.0037101575
25	0x3d2920ac	0.041290924
26	0x3ca7eaf6	0.02049778
27	0x3dc3a12d	0.09552226
28	0xbe0a48aa	-0.13504282
29	0x3c8b6d48	0.017019883
30	0xbb13b62e	-0.0022539007
31	0x3e3259d5	0.1741708

conv2.weight f4 [64, 32, 5, 5]
0	0xbd0b1191	-0.0339523
1	0x3b870e0e	0.0041215485
2	0xbcd14d45	-0.02554954
3	0xbd70ea41	-0.058817152
4	0xbbe4ef8a	-0.006986563
5	0xbc9c8092	-0.019104276
6	0xbb8a1631	-0.004214071
7	0x3c06aef7	0.008220426
8	0xbcf79a7b	-0.03022503
9	0xbc09117d	-0.008365986
10	0xbd2e0c60	-0.04249227
11	0x3c6c1cff	0.01441121
12	0xbd7018dc	-0.058617458
13	0xbc461b65	-0.012091492
14	0x3ccf7848	0.02532591
15	0x3c818cef	0.015814273
16	0x3b99ac70	0.0046897456
17	0x3b12e2d2	0.0022413027
18	0x3d3402f1	0.043948118
19	0xbc42e98e	-0.011896504
20	0x3ca38c29	0.019964295
21	0xbc97d070	-0.018532008
22	0xbcb1524c	-0.021645688
23	0xbc089743	-0.008336845
24	0xbc17fbfb	-0.009276385
25	0x3c7d649c	0.015465882
26	0xbcd0aa49	-0.025471823
27	0xbd0f6112	-0.035004683
28	0x3c3f7659	0.011685931
29	0xbcb896a9	-0.022532778
30	0x3c9217db	0.01783364
31	0x3ae1fa9b	0.0017240824
32	0x3d17fa1c	0.037103757
33	0x3cab08bf	0.020878194
34	0xbc1f02b0	-0.009705231
35	0x3cdc086e	0.026859488
36	0xbccfe4c4	-0.025377639
37	0xba7c5314	-0.0009625417
38	0xbb947fc1	-0.004531831
39	0x3ba92d5b	0.0051628775
40	0xbb9c5124	-0.004770415
41	0x3b3d745b	0.0028908465
42	0xbc2793ca	-0.010228107
43	0xbc7b5004	-0.015338901
44	0x3c8d5629	0.017252998
45	0x3c90f1a7	0.017693354
46	0x3b9f2725	0.0048569613
47	0x3c17e4d8	0.009270869
48	0x3cc906b6	0.024539333
49	0x3ba547a5	0.005043941
50	0xbd0a407a	-0.033752896
51	0xbc7a898b	-0.015291582
52	0xbbeaf835	-0.007170702
53	0xbc988567	-0.018618299
54	0xbd4cff12	-0.05004794
55	0xbcb19cbb	-0.02168118
56	0x3d17bdb6	0.037046157
57	0xbced1e0a	-0.028944988
58	0x3b022c46	0.0019862815
59	0xbbf128d9	-0.0073596057
60	0x3cdbca26	0.02682979
61	0x3c31dfcf	0.010856583
62	0xbc0210ca	-0.007938573
63	0x3d667110	0.05626017
64	0x3bb4635a	0.0055050077
65	0x3cdfca87	0.027318252
66	0xbbf2d16e	-0.00741022
67	0x3d582418	0.052768797
68	0x3d08bcf0	0.03338331
69	0x3cbb6293	0.022874152
70	0x3cdba5c2	0.026812438
71	0xba7a966a	-0.00095591566
72	0x3d51f0fc	0.05125521
73	0x3cd7bc4d	0.026334906
74	0xbbe3297e	-0.0069324365
75	0xbc44c67a	-0.012010211
76	0x3d0d8c1e	0.034557454
77	0xbd078af8	-0.033091515
78	0xbcc7a0a4	-0.024368592
79	0xbd0f0e03	-0.034925472
80	0xbbec7246	-0.007215771
81	0xbbf65a26	-0.0075180707
82	0xbc4e13f3	-0.012577998
83	0x3c89d7c7	0.016826523
84	0x3bef3053	0.007299462
85	0x3ba46e66	0.0050180433
86	0x3cb5673c	0.022143953
87	0x3bc551b8	0.0060217045
88	0x3d8f3bcb	0.069938265
89	0x3d17294a	0.03690461
90	0xbbf641cc	-0.007515168
91	0x3cbf9335	0.023385623
92	0x3ce80988	0.028324857
93	0x3c3a8c3e	0.011385975
94	0x3caea1dd	0.021317417
95	0x3a97ea7c	0.0011590268
96	0x3c93a551	0.018023165
97	0x3d33708b	0.0438085
98	0x3d38bef8	0.045103997
99	0xbab2c3b2	-0.0013638644
100	0xbcb7140f	-0.022348432
101	0xbcd22e29	-0.025656777
102	0x3c3936ad	0.01130454
103	0xbcf3b9e7	-0.029751731
104	0xbc67f469	-0.014157393
105	0x3c961b30	0.01832351
106	0x3ca8c139	0.020599948
107	0xbd32e54d	-0.04367571
108	0x3cca8ec8	0.024726287
109	0x3ca3b0f1	0.019981833
110	0x3cb972ba	0.022637714
111	0xbd2f1c68	-0.0427517
112	0x3c359bb2	0.011084484
113	0x3baef8d5	0.0053397217
114	0x3c26e90d	0.0101874
115	0xbc95ca42	-0.01828492
116	0xbcd96d30	-0.026541322
117	0x3cd84135	0.02639828
118	0x3d07227c	0.03299187
119	0x3bdc7730	0.0067280754
120	0xbcac2943	-0.021015769
121	0x3cacfca5	0.021116564
122	0x3c8eb1b9	0.01741873
123	0x3d0d3aff	0.03448009
124	0x3ce78567	0.028261853
125	0xbcf1b961	-0.02950734
126	0xbd0eb100	-0.03483677
127	0xba7e752e	-0.0009706792
128	0x3d354839	0.04425833
129	0x3c9856b7	0.018596036
130	0x3cf978d3	0.030453121
131	0x3d059847	0.032615926
132	0xbc243196	-0.010021588
133	0x3b97e90c	0.0046359356
134	0xbd8b215c	-0.06793472
135	0x3cba8285	0.022767315
136	0xbb3aed69	-0.0028522855
137	0xbbc59106	-0.006029251
138	0xbb9709f1	-0.0046093394
139	0xbd0196f1	-0.03163809
140	0xbcb1d57a	-0.021708239
141	0xbc8caa00	-0.017170906
142	0xbd5f9990	-0.054589808
143	0xbd84a368	-0.0647648
144	0xbd539705	-0.051657695
145	0xbd6d7f88	-0.05798295
146	0xbd8d0dd3	-0.068874024
147	0xbd7e837f	-0.062137123
148	0xbd1bac4f	-0.038006123
149	0xbd69f83b	-0.057121497
150	0x3d17e2ca	0.037081517
151	0xb9ac5d31	-0.0003287583
152	0x3cbdddb3	0.023177003
153	0x3c89493c	0.016758554
154	0x3a61f89e	0.00086201157
155	0x3cf21093	0.029548919
156	0xbb296850	-0.0025849529
157	0xbb07c9e7	-0.0020719708
158	0x3bffdd1b	0.0078083402
159	0x391b5b14	0.00014815881
160	0xbc294c2c	-0.010333102
161	0xbc5531ae	-0.013012333
162	0x3d15dd11	0.03658778
163	0xbbe863dd	-0.0070919828
164	0x3cd31cd0	0.025770575
165	0xbbb0b1c0	-0.005392283
166	0x3c3a2f6e	0.011363847
167	0x3d0af18f	0.033921774
168	0xba4922d8	-0.00076727336
169	0xbc75fd95	-0.015014072
170	0x3c333567	0.010938025
171	0xbb984ecb	-0.0046480647
172	0xbca3a22a	-0.019974787
173	0xbacb8d7a	-0.0015529834
174	0xbc9a8a9a	-0.018864919
175	0x3c7b3425	0.015332256
176	0x3d2c5ff1	0.042083684
177	0xbc2cd186	-0.010548001
178	0xbc5e0e0d	-0.013553155
179	0xbc95fe5b	-0.018309763
180	0xbbe059f4	-0.0068466607
181	0xbcb5dea6	-0.022200894
182	0xbd48c6ba	-0.049017645
183	0xbce42f51	-0.027854593
184	0x3c0618c1	0.008184613
185	0x3c6e26d2	0.014535623
186	0xbd346b91	-0.044047896
187	0x3c7a273e	0.015268145
188	0x3cd1fa1c	0.025631957
189	0x3c3ec4e4	0.011643622
190	0xbbf08a32	-0.007340693
191	0xbd1be1cb	-0.03805713
192	0x3cd2d1d9	0.025734829
193	0xba9f94ef	-0.0012175123
194	0xbcd88304	-0.02642966
195	0x3b73c67e	0.0037197168
196	0xbd226591	-0.039647643
197	0x3c8f4a69	0.017491536
198	0x3c509791	0.012731449
199	0xbd6d12c8	-0.05787924
200	0xbce32a19	-0.027730035
201	0x3d023442	0.03178812
202	0x3cd2872f	0.025699226
203	0xbb3bfa6e	-0.0028683203
204	0xbaa5360a	-0.0012604606
205	0x3be26a35	0.0069096335
206	0x3cbde936	0.023182493
207	0x3d047310	0.032336295
208	0x3cd614cd	0.026132965
209	0x39b7c69a	0.0003505245
210	0x3c62b626	0.013837373
211	0xbc97b562	-0.018519107
212	0xbcfb74bd	-0.030695314
213	0x3d4430b0	0.047897995
214	0x3d4d92ff	0.050189015
215	0xba284aa6	-0.0006419815
216	0xbc2b6ff2	-0.010463702
217	0x3d1df2f3	0.038561773
218	0x3cf4e8d8	0.029896185
219	0x3bf230a1	0.007391051
220	0xbd0c3871	-0.034233514
221	0x3ce3ced9	0.027808594
222	0x3c9f6188	0.019455686
223	0xbb5ae54e	-0.0033400836
224	0x3d1f0ee4	0.03883256
225	0xba240def	-0.000625818
226	0x3d06ea2f	0.03293818
227	0x3d34f10e	0.0441752
228	0x3d0c9f81	0.034331802
229	0xbc69a0fe	-0.014259575
230	0xbccb4596	-0.024813455
231	0x3c83c103	0.016083246
232	0xbc913a19	-0.017727898
233	0x3c9a1c93	0.018812453
234	0xbb9b917a	-0.0047475668
235	0x3ca5f252	0.020257149
236	0xbb6e8354	-0.0036394196
237	0xbd0968ab	-0.033547085
238	0x3c837003	0.016044622
239	0x3d481ae3	0.048853766
240	0xbc1ce7b2	-0.009576725
241	0xbd0d7a3c	-0.0345404
242	0xbd12de7a	-0.0358567
243	0x3cc13e31	0.023589225
244	0x3c83cd12	0.016088996
245	0xbc1bfb2a	-0.009520331
246	0x3bc6ad24	0.0060631204
247	0x3cad543e	0.021158334
248	0xba255ee3	-0.000630839
249	0xbc96cf82	-0.018409494
250	0x3c797a12	0.015226858
251	0xbc85435a	-0.016267467
252	0xbaea0f36	-0.0017857316
253	0xbc2dbb36	-0.010603717
254	0xbc727939	-0.01479941
255	0x3d1d1f0b	0.038359683

conv2.bias f4 [64]
0	0xbd0e24a7	-0.034702923
1	0x3ca075c4	0.019587405
2	0xbd27c9e6	-0.04096403
3	0x3d0899ce	0.033349805
4	0xbcedc46c	-0.029024325
5	0xbd268d9c	-0.040662393
6	0x3c4a2b4b	0.012339423
7	0xbcc2e1b6	-0.023789268
8	0x3c9bf8ad	0.019039476
9	0xbbdb1ca8	-0.0066867657
10	0xbbd7ca70	-0.0065854117
11	0x3cad4457	0.021150751
12	0x3c55b94e	0.013044668
13	0xbc214135	-0.009842207
14	0xbd776c2a	-0.060405888
15	0x3caeb2bf	0.021325467
16	0xbbd37029	-0.0064525795
17	0xbc3fe6a6	-0.011712706
18	0x3cfee342	0.031114224
19	0xbbf03101	-0.0073300605
20	0xbcc423bc	-0.02394282
21	0xbcf45e31	-0.02983007
22	0xbcdd89e8	-0.027043298
23	0xbd24e014	-0.04025276
24	0x3b232322	0.0024892767
25	0x3c958bc9	0.018255131
26	0x3ce16138	0.027512178
27	0xbc8821a3	-0.016617602
28	0xbd1e62c6	-0.038668416
29	0xbd3a598b	-0.04549555
30	0x3d122c56	0.035686813
31	0x3bd29b18	0.00642718
32	0x3a83f429	0.0010067272
33	0x3bb32ec7	0.005468223
34	0xbd4ccacc	-0.04999809
35	0xbcaf0478	-0.021364436
36	0xbceec54b	-0.029146811
37	0xbcb39183	-0.021919971
38	0xbca2e3db	-0.01988404
39	0xbd40992e	-0.047021084
40	0xbbb1ea37	-0.005429532
41	0xbd613c81	-0.05498934
42	0x3c8b6c4d	0.017019415
43	0xbb994869	-0.0046778214
44	0x3cb7d16e	0.022438731
45	0x3d1884f3	0.037236165
46	0xbc7c083a	-0.015382821
47	0x3c8c6fe5	0.0171432
48	0xbd5d3614	-0.05400665
49	0x3b9b6f6b	0.0047435067
50	0xbcf3e443	-0.02977193
51	0xbcf6d5a8	-0.030131176
52	0x3c7141ce	0.014725162
53	0xbd1c4e1d	-0.038160432
54	0x3c81056c	0.015749656
55	0xbd70ea09	-0.058816943
56	0x3c0164d5	0.007897575
57	0xbd7a5bbb	-0.061122637
58	0xbc8073e2	-0.015680257
59	0xbcbced8f	-0.023062496
60	0xbb902afa	-0.0043996545
61	0x3cc49f86	0.024001848
62	0xbc7ea3ac	-0.015541952
63	0xbc28d41a	-0.010304475

fc1.weight f4 [100, 1024]
0	0x3d7fef4d	0.062484074
1	0xbc0da28d	-0.008644712
2	0xbc852f3d	-0.016257877
3	0xbd09def0	-0.033659875
4	0x3d21faa3	0.039545666
5	0xbaa31a93	-0.0012443833
6	0xbd2875e6	-0.04112806
7	0x3c9973c7	0.018731965
8	0x3b6f94df	0.003655724
9	0xbc9f5bc6	-0.01945294
10	0x3c93d90c	0.018047832
11	0xbb3a8372	-0.0028459695
12	0xbcb8ef22	-0.022574965
13	0x3c12e067	0.0089646345
14	0x3cdcd934	0.02695904
15	0xbc80af14	-0.015708484
16	0xba046d77	-0.0005051712
17	0xbcff7f4f	-0.031188635
18	0x3c0c16df	0.008550375
19	0x3d283fe3	0.041076552
20	0xbcb82285	-0.022477398
21	0x3d419135	0.04725762
22	0x3b68dbd4	0.0035531418
23	0x3c6d5f3a	0.014488036
24	0xbcbc4b30	-0.022985071
25	0x3c96ec53	0.018423235
26	0xbd125d15	-0.0357333
27	0xbce7c846	-0.02829374
28	0xbd197c32	-0.037471958
29	0xbc8239a4	-0.015896626
30	0x3d0cfac8	0.03441885
31	0xbc546856	-0.012964329
32	0xbc9d4e04	-0.01920224
33	0x3d71949b	0.05897961
34	0x3d092da5	0.033490796
35	0x3cf28551	0.029604586
36	0xbc8059fe	-0.015667912
37	0x3a737256	0.0009286752
38	0x3cb18878	0.021671519
39	0x3b3c5001	0.002873421
40	0x3bea5be9	0.00715207
41	0x3cdec0e0	0.02719158
42	0xbc9f6479	-0.019457089
43	0xbcd09134	-0.025459863
44	0xbb2d0551	-0.0026400874
45	0x3c5684ff	0.013093232
46	0xbd0dcbcc	-0.034618184
47	0xbc28538f	-0.010273828
48	0x3d3788f6	0.04480835
49	0x3a2b9f86	0.0006546903
50	0x3d0d6f9d	0.03453027
51	0x3cd5a153	0.026077902
52	0xbcafa0fa	-0.021439064
53	0xbca2c113	-0.019867456
54	0xbd1c44b0	-0.038151443
55	0xbd1917fb	-0.037376385
56	0x3bdaa17d	0.006672083
57	0xbccf1d5d	-0.025282556
58	0xbd66f0b4	-0.056381896
59	0xbcf6d579	-0.030131089
60	0xbcb200b6	-0.021728855
61	0xbd93e3fd	-0.0722122
62	0xbc0dc717	-0.008653424
63	0x3ced502c	0.028968893
64	0xbc88fbbf	-0.016721604
65	0x3bf79990	0.007556148
66	0xbc1346bd	-0.008989033
67	0x3d24b309	0.040209804
68	0x3cb3ab83	0.02193237
69	0xbb03a7da	-0.002008906
70	0xbcc178a8	-0.023617104
71	0x3c74824f	0.014923646
72	0x3c48c53a	0.012254054
73	0x3ccaf5d1	0.024775418
74	0x3bd5a8d7	0.0065203714
75	0xbd0b27f7	-0.03397366
76	0xbc917df0	-0.017760247
77	0x3cc13f86	0.02358986
78	0xb9b8c95e	-0.00035245245
79	0x3cd47c43	0.025938159
80	0xb9ea131f	-0.00044646204
81	0x3bf03935	0.0073310384
82	0x3c069ce3	0.008216116
83	0xbc0c3b47	-0.008559055
84	0xbb8198b5	-0.0039549717
85	0x3d01ad6a	0.03165952
86	0x3b70ff67	0.0036773325
87	0xbd07720b	-0.033067744
88	0xbcafbf0a	-0.0214534
89	0x3cff049f	0.031130133
90	0x3c80fdec	0.01574608
91	0xbceec842	-0.029148225
92	0x3c0a531c	0.008442666
93	0x3d465738	0.048423022
94	0x3aeb2f9b	0.0017943265
95	0xbc6a2a13	-0.014292258
96	0x3c1dc914	0.00963046
97	0xbd256d7e	-0.040387623
98	0xbcac5d47	-0.021040572
99	0xbc215c98	-0.009848736
100	0x3c01440f	0.007889762
101	0xbc8b4052	-0.016998444
102	0xbca27014	-0.019828834
103	0x3d25a2e4	0.040438548
104	0x3c9955ea	0.018717725
105	0xbcc41983	-0.023937946
106	0x3c317f30	0.0108335465
107	0x3ca8ee95	0.020621577
108	0x3cf1a07a	0.029495467
109	0xbd49b94b	-0.049248975
110	0xbcb0c367	-0.02157755
111	0xbc9db6b9	-0.019252168
112	0x3be24345	0.006904992
113	0x38db76bd	0.000104648505
114	0x3c7e5281	0.0155226
115	0x3a9d417c	0.0011997665
116	0xbc8719dc	-0.016491823
117	0x3bce0c38	0.0062880777
118	0x3d0c7e46	0.03430011
119	0x3c578c03	0.01315594
120	0x3cda0167	0.026611997
121	0x3cfd8e6f	0.030951707
122	0x3ccf7721	0.02532536
123	0xbd08be91	-0.033384863
124	0x3c2c6c58	0.010523878
125	0x3c7b21c7	0.015327877
126	0x3c422f54	0.011852104
127	0xbd0e55cb	-0.034749787
128	0xbcf1eb18	-0.029531047
129	0xbbf35cb0	-0.0074268207
130	0x3d08d128	0.033402592
131	0x3cf24042	0.029571656
132	0xbd536a9c	-0.051615342
133	0xbce5857a	-0.028017748
134	0x3c9d3971	0.01919243
135	0x3d5c6037	0.053802695
136	0xbca162d5	-0.019700447
137	0xbd029701	-0.03188229
138	0x3cfb9668	0.030711368
139	0x3a96e6cf	0.0011512878
140	0xbcd761ae	-0.026291694
141	0x3cea4a60	0.028599918
142	0x3b8a9b5a	0.004229945
143	0xbd2c8ecf	-0.04212838
144	0x3d230589	0.0398002
145	0x3d69e431	0.057102386
146	0xbc3fb012	-0.011699693
147	0x3c818d0c	0.015814327
148	0xbb81ad1a	-0.003957403
149	0xbb100331	-0.0021974558
150	0x3cd89bbd	0.02644145
151	0xbd259b0c	-0.040431067
152	0x3c4d807e	0.012542842
153	0xbc77e6f3	-0.015130746
154	0xbcfc6393	-0.0308092
155	0xbccc9360	-0.024972618
156	0x3c8e1c96	0.017347615
157	0xbba5ce9b	-0.0050600297
158	0xbcfc3aa9	-0.03078969
159	0xbca0ee21	-0.019644799
160	0xbc31caa0	-0.010851532
161	0xbc6134aa	-0.013745466
162	0xbcb21434	-0.02173815
163	0xbcbccf33	-0.023048019
164	0x3cc94f36	0.024573904
165	0xbc80b8b9	-0.015713083
166	0xbd1427eb	-0.03617088
167	0xbcf30cb5	-0.029669145
168	0x3b5d3629	0.0033754206
169	0x3d95e542	0.07319118
170	0xbb430968	-0.0029760245
171	0x3cbec2e9	0.0232863
172	0xbbf7be71	-0.007560544
173	0x3ccad1f6	0.02475832
174	0x3d5b980e	0.053611808
175	0x3ae468d9	0.0017426267
176	0x3c3afde8	0.011413075
177	0xbc00708c	-0.007839333
178	0xbbe3c5c3	-0.0069510653
179	0x3ccf7191	0.025322707
180	0xbc2629e1	-0.010141821
181	0x3b8c2076	0.0042763306
182	0xba865401	-0.0010248424
183	0xbc23bab5	-0.009993245
184	0xbcb36627	-0.021899296
185	0x3a67db45	0.00088446244
186	0xbb9f93d6	-0.0048699183
187	0xb8ccb052	-9.76032e-05
188	0xbd055415	-0.03255089
189	0x3c867952	0.016415272
190	0x3cd1449f	0.025545416
191	0x3c535069	0.012897589
192	0xbc96911b	-0.018379739
193	0xbd72725d	-0.059191097
194	0xbc97cd39	-0.018530475
195	0xbc101482	-0.008793952
196	0x3ca74b2f	0.020421593
197	0x3b31be7e	0.0027121599
198	0x3c8bb408	0.017053619
199	0x3d00906c	0.03138773
200	0x3d13c124	0.036072865
201	0xbd58a558	-0.05289206
202	0xbbda0e94	-0.00665457
203	0x3c8a9027	0.01691444
204	0x3c065e0f	0.008201136
205	0xbd60e750	-0.054908097
206	0xbcafa4c9	-0.02144088
207	0xbca4f0a2	-0.020134274
208	0xbd295718	-0.041342825
209	0x3c6c0d39	0.014407449
210	0x3ce4b895	0.027920047
211	0x3cb6b03e	0.022300836
212	0xbc85f650	-0.016352803
213	0x3c7652dc	0.015034404
214	0xbb43c0c7	-0.0029869543
215	0x3c2fab06	0.0107219275
216	0xbce41119	-0.027840184
217	0xbc85603f	-0.016281245
218	0xbb53d323	-0.0032321892
219	0xbd2b9bff	-0.041896816
220	0x3c92aa70	0.017903537
221	0x3b218ea3	0.0024651669
222	0x3b0e7ce0	0.0021741912
223	0xbd19992f	-0.037499603
224	0x3d99053e	0.07471703
225	0x3ce6354d	0.028101588
226	0xbc47c888	-0.0121938065
227	0xbd9b6a3b	-0.07588621
228	0xbb8bcf5c	-0.0042666625
229	0x3cd33e6c	0.025786601
230	0x3c40657c	0.011742946
231	0xbd9d7d4b	-0.07689913
232	0x3d287a62	0.04113234
233	0xbc27abf6	-0.01023387
234	0xbc92105e	-0.01783007
235	0xbd88aff2	-0.06674184
236	0x3a233f06	0.0006227348
237	0xbd830b6c	-0.06398663
238	0xbd06ebd7	-0.03293976
239	0xbd178fd1	-0.03700239
240	0x3c06aed8	0.008220397
241	0x3ce530b7	0.02797733
242	0xbcb2a906	-0.021809112
243	0xbd411753	-0.047141384
244	0x3c766726	0.015039241
245	0x3c95e518	0.018297717
246	0xbcc0b17d	-0.023522133
247	0xbc5977a9	-0.013273158
248	0xbc6f86d1	-0.014619545
249	0x3c1628c0	0.009164989
250	0xbc7ed624	-0.015553985
251	0x3c9c01a8	0.019043759
252	0xbcd6dce9	-0.026228385
253	0xbd5891b4	-0.05287333
254	0xbd3ba314	-0.04580982
255	0xbca9d1de	-0.020729955

fc1.bias f4 [100]
0	0x3c85fc2f	0.016355602
1	0x3d2aefde	0.04173266
2	0xbc97784b	-0.018489977
3	0xbd1bfeaa	-0.038084663
4	0xbc823587	-0.015894664
5	0x3ca46dbf	0.020071862
6	0x3d1b5648	0.03792408
7	0xbc06fef8	-0.0082395
8	0x3d17f02f	0.03709429
9	0x3d6f8984	0.058480754
10	0xbc1ccc28	-0.009570159
11	0x3c04c332	0.008103179
12	0xbb2a86ad	-0.0026020214
13	0xbc4860ef	-0.012230142
14	0x3d25aa62	0.040445693
15	0xbbce18df	-0.006289586
16	0x3baefe33	0.0053403615
17	0x3c8c87d2	0.017154608
18	0xbb91329a	-0.004431081
19	0xbcf4eac7	-0.029897107
20	0x3be49850	0.006976165
21	0x3d5bc697	0.053656187
22	0x3bd7a946	0.0065814583
23	0x3d236f71	0.0399012
24	0x3b829d96	0.003986071
25	0x3d228151	0.039674107
26	0xbcc6ab3c	-0.024251573
27	0x3c6b30dd	0.014354912
28	0x3bf18a6b	0.007371237
29	0x3d56f65b	0.052481037
30	0xbaee5fdf	-0.0018186531
31	0x3cbe794c	0.023251198
32	0x3c8d1c5b	0.017225435
33	0x3d597422	0.05308927
34	0xbc3eccd3	-0.011645514
35	0x3cb6f7e4	0.022335
36	0x3cf5e2b3	0.030015325
37	0x3ce85cd1	0.02836457
38	0xbbdfb478	-0.0068269335
39	0x3ba88802	0.0051431665
40	0x3cfcec3f	0.03087437
41	0xbb0a8f28	-0.0021142457
42	0x3b5c5d41	0.003362492
43	0xbc89d581	-0.01682544
44	0x3ca474e2	0.020075265
45	0x3b3cd1c4	0.0028811553
46	0xbc9b22a9	-0.018937426
47	0x3cd15bc2	0.025556449
48	0x3d347c67	0.04406395
49	0x3ce27cad	0.02764734
50	0x3d63bb22	0.055598386
51	0xbc2fdf3d	-0.0107343765
52	0x3b64e3f7	0.0034925917
53	0x3d4a5823	0.04940046
54	0xbbd3cc07	-0.006463531
55	0x3c3b7b7a	0.011443013
56	0x3c25ae11	0.010112301
57	0x3ce8c3c4	0.02841366
58	0x3c85b70e	0.016322639
59	0x3d16e682	0.036840923
60	0xbbe98985	-0.0071269893
61	0x3c0a166e	0.008428199
62	0x3c8d60dc	0.0172581
63	0xbbf1ee5e	-0.007383152
64	0x3cc22408	0.023698822
65	0xbc8b8126	-0.017029356
66	0x3d13ef5a	0.036116935
67	0x3d09b65e	0.033621185
68	0xbc9d8686	-0.019229185
69	0x3c3d7dd3	0.011565643
70	0x3d17cede	0.03706252
71	0x3cd59b11	0.026074918
72	0xbc6ff7de	-0.0146464985
73	0x3d9938da	0.07481547
74	0xbbff9080	-0.007799208
75	0x395e2504	0.00021185359
76	0x3d2c4a3e	0.04206299
77	0x3d1b5b95	0.037929136
78	0x3b04f072	0.0020284918
79	0x3b8966e6	0.0041931747
80	0xbbfc7f13	-0.007705578
81	0x3c928110	0.017883807
82	0x3cf54beb	0.029943427
83	0xbbca9d6c	-0.006183317
84	0x3cbca711	0.023028882
85	0x3ce04940	0.027378678
86	0x3d21c4b3	0.039494228
87	0x3c2cd4ad	0.010548753
88	0x3c91c398	0.017793462
89	0x3ca19d49	0.01972832
90	0x3d186ede	0.037215106
91	0x3cc2d277	0.023781998
92	0xb9a8fde5	-0.00032232623
93	0x3c098960	0.008394569
94	0x3baa30ad	0.005193791
95	0x3c2b8730	0.010469243
96	0x3c4679b9	0.012113982
97	0x3cf832de	0.030297693
98	0x3d2f46d6	0.042792164
99	0xbc9b0ea1	-0.018927874

fc2.weight f4 [10, 100]
0	0x3e2f4466	0.17115936
1	0x3e6bd32d	0.23029776
2	0xbd8ef120	-0.06979585
3	0xbdf8c9e1	-0.1214788
4	0xbd98697c	-0.074419945
5	0xbe587f77	-0.21142374
6	0xbd9ef9d8	-0.07762498
7	0x3e41907d	0.18902774
8	0x3d7fe7b7	0.06247684
9	0xbe41f126	-0.18939647
10	0x3e0c6163	0.13709025
11	0xbe4f3e6e	-0.20238659
12	0xbe600139	-0.21875466
13	0x3dfe4f48	0.124174654
14	0x3df4654c	0.11933383
15	0x3d5da3fc	0.054111466
16	0xbdcde59f	-0.100535624
17	0xbdd125f7	-0.10212319
18	0xbcbf7140	-0.023369431
19	0x3de30f90	0.11086953
20	0x3e5d0664	0.21584469
21	0x3e3a42af	0.181895
22	0x3d01df9f	0.031707402
23	0xbdf5cbb9	-0.12001748
24	0x3e0e6867	0.13907014
25	0x3df91fdb	0.12164279
26	0xbd1519f6	-0.03640171
27	0xbe04ea86	-0.12980089
28	0xbe246306	-0.160534
29	0xbe45cc96	-0.19316325
30	0x3e0725a4	0.13197953
31	0x3dba46a6	0.09095506
32	0x3cec48be	0.02884328
33	0xbdf8bdf7	-0.12145608
34	0x3c3d4436	0.011551907
35	0xbdf50600	-0.11964035
36	0xbe136d91	-0.14397265
37	0x3e530de7	0.20610772
38	0xbe1f6686	-0.15566453
39	0x3e2627ca	0.16226116
40	0xbe3444c0	-0.17604351
41	0xbdb03e8c	-0.0860568
42	0x3df26df7	0.118373804
43	0xbddee2b0	-0.10883081
44	0xbdb7d242	-0.0897565
45	0x3e3b6ca3	0.1830316
46	0xbe13d01a	-0.14434853
47	0x3e462662	0.1935058
48	0x3e89220a	0.26783782
49	0xbe192a83	-0.14957623
50	0xbe08dfe0	-0.13366652
51	0xbd0f33cd	-0.03496151
52	0xbdc8af9c	-0.0979912
53	0xbe689754	-0.22713977
54	0xbc84cca0	-0.016210854
55	0x3db3961c	0.087688655
56	0xbe3cd068	-0.18438876
57	0x3e219970	0.15781188
58	0x3e4ddc9d	0.20103689
59	0xbe146896	-0.14493021
60	0x3d55085a	0.052009918
61	0xbe218de0	-0.15776777
62	0x3d150d50	0.03638965
63	0xbe684ba7	-0.22685109
64	0x3e636d57	0.22209679
65	0x3dc196dd	0.09452603
66	0xbdbc40e2	-0.09192063
67	0xbd8b4333	-0.067999266
68	0xbe0be3bb	-0.13661091
69	0x3db9f6c8	0.09080273
70	0xbe0b4f3c	-0.13604444
71	0x3e28f004	0.16497809
72	0xbe14826d	-0.14502878
73	0x3d5c9eb0	0.053862274
74	0x3da11864	0.0786598
75	0xbe7de360	-0.24793768
76	0xbd833e11	-0.064083226
77	0xbe33c278	-0.17554653
78	0x3e1aeb2c	0.15128773
79	0xbcb53c9d	-0.02212363
80	0xbe1530a6	-0.14569339
81	0xbe3807bf	-0.17971705
82	0x3e1ef3a1	0.15522625
83	0x3db1cc3c	0.08681533
84	0x3e3a5d83	0.18199734
85	0xbe32fd03	-0.17479329
86	0x3e55dbee	0.20884678
87	0x3d781eb2	0.06057615
88	0x3d3c3c93	0.045956206
89	0x3dc9fc44	0.09862569
90	0xbe3b3080	-0.1828022
91	0x3da4de68	0.08050233
92	0xbe2250c3	-0.1585112
93	0xbe2889af	-0.16458772
94	0xbe26018d	-0.16211529
95	0xbe052fb9	-0.13006486
96	0x3e175dbe	0.14781854
97	0xbd37d04a	-0.044876374
98	0x3cbee334	0.023301698
99	0xbdb0e64d	-0.086376764
100	0xbdc71f0d	-0.09722719
101	0xba4a7fb0	-0.00077247154
102	0x3e405e5f	0.18786
103	0xbe20c8ef	-0.1570165
104	0xbe1eb76f	-0.15499662
105	0x3d8e544e	0.069496736
106	0x3e0a0f0c	0.13482302
107	0xbdf57758	-0.11985654
108	0x3e47f3ce	0.19526598
109	0x3e16bb55	0.14719899
110	0xbe98a95a	-0.29816705
111	0xbe8d1d9c	-0.27561653
112	0x3d658b09	0.056040797
113	0x3e1be8e8	0.15225565
114	0xbe9b951b	-0.30387196
115	0xbe2a818d	-0.16650982
116	0x3e5110b2	0.20416525
117	0x3e8a3661	0.26994613
118	0xbd636304	-0.05551435
119	0x3d487906	0.048943542
120	0xbdc3aa0d	-0.09553919
121	0x3dfffb02	0.12499048
122	0x3e306eb6	0.17229733
123	0x3e1a7891	0.15085055
124	0xbda3bc94	-0.07994953
125	0x3ddfaa73	0.109211825
126	0xbdc571da	-0.09640856
127	0x3e0126f4	0.12612516
128	0x3dbba26e	0.091618404
129	0x3e29fc57	0.16600166
130	0xbe166383	-0.14686398
131	0xbe40befa	-0.18822852
132	0xbe56aa1f	-0.20963334
133	0x3de2734a	0.11057146
134	0x3e61c1dd	0.22046609
135	0x3de7da69	0.11320955
136	0x3e891a80	0.2677803
137	0x3dbb5286	0.091465995
138	0xbcf6142c	-0.030038916
139	0xbe788b0a	-0.24271789
140	0x3dd86a1b	0.10567113
141	0x3e5a9dda	0.21349278
142	0xbe95fbc5	-0.29293647
143	0x3ddfe365	0.10932044
144	0x3e2db01f	0.16961716
145	0xbe65fc01	-0.22459413
146	0xbe55e50d	-0.20888157
147	0xbc60ff93	-0.013732809
148	0xbe71250e	-0.23549291
149	0x3df74b01	0.12074853
150	0x3e2422f4	0.16028959
151	0xbe3fe734	-0.1874054
152	0xbc413459	-0.011792266
153	0x3e240246	0.16016492
154	0xbb3eda88	-0.0029121954
155	0xbe62a44c	-0.22132987
156	0x3e4bd96e	0.19907162
157	0xbd62b30e	-0.05534654
158	0x3e44a12f	0.19202112
159	0x3e8b99ac	0.2726568
160	0x3d885ad0	0.06657946
161	0xbb84ca7f	-0.0040524597
162	0xbe0dd1e8	-0.13849604
163	0xbde74844	-0.112930804
164	0x3e243ca7	0.16038762
165	0xbe8ba1b6	-0.27271813
166	0x3dc4b3ad	0.09604583
167	0xbd66638f	-0.05624729
168	0xbe572550	-0.21010327
169	0xbe1fb1ea	-0.15595213
170	0xbe407684	-0.1879521
171	0x3e25b42a	0.16182008
172	0xbe304bd2	-0.17216423
173	0x3e67d84a	0.22641101
174	0xbe1eaebc	-0.15496343
175	0xbe16d902	-0.1473122
176	0x3dd37497	0.10324972
177	0x3e653280	0.22382545
178	0x3c8e2c6f	0.017355172
179	0xbddf079f	-0.108901255
180	0xbd965361	-0.07340122
181	0x3d412472	0.047153898
182	0xbe6dd4a5	-0.23225649
183	0xbe750101	-0.23926164
184	0x3e17ac87	0.14811908
185	0x3e06e865	0.13174589
186	0x3e4d6e2f	0.20061563
187	0xbda22172	-0.079165354
188	0x3e403a46	0.1877223
189	0xbe1705f6	-0.14748368
190	0x3d94d228	0.072666466
191	0x3d9a4e26	0.07534437
192	0x3e13ebeb	0.14445464
193	0x3d45221c	0.048128232
194	0x3e1393d0	0.14411855
195	0xbde4a8f7	-0.1116504
196	0xbe34cb17	-0.17655598
197	0x3e353c3c	0.17698759
198	0x3e56a673	0.20961933
199	0x3cbc2322	0.022965971
200	0xbe45942f	-0.19294809
201	0xbc9c4b60	-0.01907891
202	0x3de87585	0.1135054
203	0x3c8b8600	0.01703167
204	0x3e59e4da	0.21278706
205	0x3e026a57	0.12735878
206	0xbd9389c7	-0.07204013
207	0x3e48bce1	0.19603302
208	0xbdb70cfe	-0.08938025
209	0x3d82039d	0.063483454
210	0xbdefe243	-0.11713078
211	0xbe451477	-0.19246088
212	0xbe86fc4b	-0.2636436
213	0x3c5d98eb	0.013525228
214	0xbe3ab29e	-0.182322
215	0xbe3ee0d5	-0.18640454
216	0x3e4ceedb	0.20012991
217	0x3e4873bb	0.19575398
218	0xbd5d4f97	-0.05403098
219	0x3e544aff	0.20731734
220	0x3e35a9ef	0.17740606
221	0x3e2b009a	0.16699448
222	0xbe7bd4e0	-0.24592924
223	0xbe8a9ab0	-0.27071142
224	0xbdec22a3	-0.11530044
225	0xbe5e9d00	-0.21739578
226	0x3d8ed9db	0.069751464
227	0xbe059a46	-0.13047132
228	0x3deebd2f	0.11657178
229	0x3e59493e	0.21219346
230	0x3df30bc4	0.118674785
231	0x3e17e7cc	0.14834517
232	0x3e328d10	0.17436624
233	0xbe34688c	-0.17618006
234	0xbcb36f3a	-0.021903623
235	0x3e25e911	0.16202189
236	0x3e886d9a	0.2664612
237	0x3e3304cf	0.17482303
238	0x3d50301e	0.050827138
239	0x3dbac3c6	0.09119372
240	0xbea28c48	-0.3174765
241	0xbe1689ba	-0.14700976
242	0xbe512e63	-0.20427851
243	0x3deac6cd	0.114636995
244	0x3ddb2129	0.10699684
245	0xbe6f376b	-0.23360984
246	0x3ce8f2cf	0.028436093
247	0xbe62a49c	-0.22133106
248	0xbb668569	-0.0035174733
249	0x3e0570ae	0.13031265
250	0x3e4f1fe9	0.20227017
251	0x3e0d46c2	0.13796523
252	0xbce20450	-0.027589947
253	0xbe5aa3ac	-0.21351498
254	0x3d8a9ac2	0.06767799
255	0x3decb38a	0.11557682

fc2.bias f4 [10]
0	0x3e3839c1	0.17990781
1	0x3e32f7a3	0.17477278
2	0x37987a4e	1.8176765e-05
3	0xbd724f04	-0.059157386
4	0xbe3728ff	-0.17886733
5	0x3d5b72a6	0.053576134
6	0xbc9f73ca	-0.019464392
7	0x3d8b81bd	0.06811855
8	0x3d8f72c4	0.07004312
9	0xbdc8fdf7	-0.09814065
